Qwen2ForCausalLM(
  (model): Qwen2Model(
    (embed_tokens): Embedding(151936, 1536)
    (layers): ModuleList(
      (0-27): 28 x Qwen2DecoderLayer(
        (self_attn): Qwen2Attention(
          (q_proj): lora.Linear(
            (base_layer): Linear(in_features=1536, out_features=1536, bias=True)
            (lora_dropout): ModuleDict(
              (default): Dropout(p=0.1, inplace=False)
            )
            (lora_A): ModuleDict(
              (default): Linear(in_features=1536, out_features=64, bias=False)
            )
            (lora_B): ModuleDict(
              (default): Linear(in_features=64, out_features=1536, bias=False)
            )
            (lora_embedding_A): ParameterDict()
            (lora_embedding_B): ParameterDict()
            (lora_magnitude_vector): ModuleDict()
          )
          (k_proj): lora.Linear(
            (base_layer): Linear(in_features=1536, out_features=256, bias=True)
            (lora_dropout): ModuleDict(
              (default): Dropout(p=0.1, inplace=False)
            )
            (lora_A): ModuleDict(
              (default): Linear(in_features=1536, out_features=64, bias=False)
            )
            (lora_B): ModuleDict(
              (default): Linear(in_features=64, out_features=256, bias=False)
            )
            (lora_embedding_A): ParameterDict()
            (lora_embedding_B): ParameterDict()
            (lora_magnitude_vector): ModuleDict()
          )
          (v_proj): lora.Linear(
            (base_layer): Linear(in_features=1536, out_features=256, bias=True)
            (lora_dropout): ModuleDict(
              (default): Dropout(p=0.1, inplace=False)
            )
            (lora_A): ModuleDict(
              (default): Linear(in_features=1536, out_features=64, bias=False)
            )
            (lora_B): ModuleDict(
              (default): Linear(in_features=64, out_features=256, bias=False)
            )
            (lora_embedding_A): ParameterDict()
            (lora_embedding_B): ParameterDict()
            (lora_magnitude_vector): ModuleDict()
          )
          (o_proj): lora.Linear(
            (base_layer): Linear(in_features=1536, out_features=1536, bias=False)
            (lora_dropout): ModuleDict(
              (default): Dropout(p=0.1, inplace=False)
            )
            (lora_A): ModuleDict(
              (default): Linear(in_features=1536, out_features=64, bias=False)
            )
            (lora_B): ModuleDict(
              (default): Linear(in_features=64, out_features=1536, bias=False)
            )
            (lora_embedding_A): ParameterDict()
            (lora_embedding_B): ParameterDict()
            (lora_magnitude_vector): ModuleDict()
          )
        )
        (mlp): Qwen2MLP(
          (gate_proj): lora.Linear(
            (base_layer): Linear(in_features=1536, out_features=8960, bias=False)
            (lora_dropout): ModuleDict(
              (default): Dropout(p=0.1, inplace=False)
            )
            (lora_A): ModuleDict(
              (default): Linear(in_features=1536, out_features=64, bias=False)
            )
            (lora_B): ModuleDict(
              (default): Linear(in_features=64, out_features=8960, bias=False)
            )
            (lora_embedding_A): ParameterDict()
            (lora_embedding_B): ParameterDict()
            (lora_magnitude_vector): ModuleDict()
          )
          (up_proj): lora.Linear(
            (base_layer): Linear(in_features=1536, out_features=8960, bias=False)
            (lora_dropout): ModuleDict(
              (default): Dropout(p=0.1, inplace=False)
            )
            (lora_A): ModuleDict(
              (default): Linear(in_features=1536, out_features=64, bias=False)
            )
            (lora_B): ModuleDict(
              (default): Linear(in_features=64, out_features=8960, bias=False)
            )
            (lora_embedding_A): ParameterDict()
            (lora_embedding_B): ParameterDict()
            (lora_magnitude_vector): ModuleDict()
          )
          (down_proj): lora.Linear(
            (base_layer): Linear(in_features=8960, out_features=1536, bias=False)
            (lora_dropout): ModuleDict(
              (default): Dropout(p=0.1, inplace=False)
            )
            (lora_A): ModuleDict(
              (default): Linear(in_features=8960, out_features=64, bias=False)
            )
            (lora_B): ModuleDict(
              (default): Linear(in_features=64, out_features=1536, bias=False)
            )
            (lora_embedding_A): ParameterDict()
            (lora_embedding_B): ParameterDict()
            (lora_magnitude_vector): ModuleDict()
          )
          (act_fn): SiLUActivation()
        )
        (input_layernorm): Qwen2RMSNorm((1536,), eps=1e-06)
        (post_attention_layernorm): Qwen2RMSNorm((1536,), eps=1e-06)
      )
    )
    (norm): Qwen2RMSNorm((1536,), eps=1e-06)
    (rotary_emb): Qwen2RotaryEmbedding()
  )
  (lm_head): Linear(in_features=1536, out_features=8, bias=False)
)